{
  "layers" : [
    {
      "pad_r" : 1,
      "fused_relu" : 0,
      "fused_tanh" : 0,
      "debug_info" : "input.1",
      "pad_fill_mode" : 0,
      "pad_b" : 1,
      "pad_l" : 1,
      "top" : "input.1",
      "blob_weights" : 3,
      "K" : 3,
      "blob_biases" : 1,
      "stride_x" : 2,
      "name" : "input.1",
      "has_batch_norm" : 0,
      "type" : "convolution",
      "n_groups" : 1,
      "pad_t" : 1,
      "stride_y" : 2,
      "has_biases" : 1,
      "C" : 16,
      "bottom" : "image",
      "weights" : {

      },
      "Nx" : 3,
      "pad_mode" : 0,
      "pad_value" : 0,
      "Ny" : 3,
      "n_parallel" : 1
    },
    {
      "bottom" : "input.1",
      "weights" : {

      },
      "mode" : 3,
      "debug_info" : "input.3__silu_sigmoid__",
      "top" : "input.3__silu_sigmoid__",
      "type" : "activation",
      "name" : "input.3__silu_sigmoid__"
    },
    {
      "bottom" : "input.1,input.3__silu_sigmoid__",
      "alpha" : 1,
      "operation" : 1,
      "weights" : {

      },
      "fused_relu" : 0,
      "debug_info" : "input.3",
      "top" : "input.3",
      "type" : "elementwise",
      "name" : "input.3",
      "beta" : 0
    },
    {
      "pad_r" : 1,
      "fused_relu" : 0,
      "fused_tanh" : 0,
      "debug_info" : "input.5",
      "pad_fill_mode" : 0,
      "pad_b" : 1,
      "pad_l" : 1,
      "top" : "input.5",
      "blob_weights" : 7,
      "K" : 16,
      "blob_biases" : 5,
      "stride_x" : 2,
      "name" : "input.5",
      "has_batch_norm" : 0,
      "type" : "convolution",
      "n_groups" : 1,
      "pad_t" : 1,
      "stride_y" : 2,
      "has_biases" : 1,
      "C" : 32,
      "bottom" : "input.3",
      "weights" : {

      },
      "Nx" : 3,
      "pad_mode" : 0,
      "pad_value" : 0,
      "Ny" : 3,
      "n_parallel" : 1
    },
    {
      "bottom" : "input.5",
      "weights" : {

      },
      "mode" : 3,
      "debug_info" : "input.7__silu_sigmoid__",
      "top" : "input.7__silu_sigmoid__",
      "type" : "activation",
      "name" : "input.7__silu_sigmoid__"
    },
    {
      "bottom" : "input.5,input.7__silu_sigmoid__",
      "alpha" : 1,
      "operation" : 1,
      "weights" : {

      },
      "fused_relu" : 0,
      "debug_info" : "input.7",
      "top" : "input.7",
      "type" : "elementwise",
      "name" : "input.7",
      "beta" : 0
    },
    {
      "pad_r" : 0,
      "fused_relu" : 0,
      "fused_tanh" : 0,
      "debug_info" : "input.9",
      "pad_fill_mode" : 0,
      "pad_b" : 0,
      "pad_l" : 0,
      "top" : "input.9",
      "blob_weights" : 11,
      "K" : 32,
      "blob_biases" : 9,
      "name" : "input.9",
      "has_batch_norm" : 0,
      "type" : "convolution",
      "n_groups" : 1,
      "pad_t" : 0,
      "has_biases" : 1,
      "C" : 32,
      "bottom" : "input.7",
      "weights" : {

      },
      "Nx" : 1,
      "pad_mode" : 0,
      "pad_value" : 0,
      "Ny" : 1,
      "n_parallel" : 1
    },
    {
      "bottom" : "input.9",
      "weights" : {

      },
      "mode" : 3,
      "debug_info" : "67__silu_sigmoid__",
      "top" : "67__silu_sigmoid__",
      "type" : "activation",
      "name" : "67__silu_sigmoid__"
    },
    {
      "bottom" : "input.9,67__silu_sigmoid__",
      "alpha" : 1,
      "operation" : 1,
      "weights" : {

      },
      "fused_relu" : 0,
      "debug_info" : "67",
      "top" : "67",
      "type" : "elementwise",
      "name" : "67",
      "beta" : 0
    },
    {
      "begin_104" : 0,
      "begin_63" : 0,
      "begin_59" : 0,
      "begin_64" : 0,
      "begin_105" : 0,
      "begin_65" : 0,
      "begin_0" : 0,
      "begin_70" : 0,
      "begin_66" : 0,
      "begin_106" : 0,
      "begin_110" : 0,
      "begin_2" : 0,
      "begin_71" : 0,
      "begin_67" : 0,
      "begin_68" : 0,
      "begin_107" : 0,
      "begin_111" : 0,
      "begin_4" : 0,
      "begin_72" : 0,
      "begin_73" : 0,
      "begin_69" : 0,
      "begin_6" : 0,
      "begin_74" : 0,
      "begin_108" : 0,
      "type" : "split_nd",
      "begin_8" : 0,
      "begin_112" : 0,
      "begin_75" : 0,
      "begin_10" : 0,
      "begin_80" : 0,
      "begin_76" : 0,
      "begin_109" : 0,
      "begin_113" : 0,
      "begin_11" : 0,
      "nd_axis" : 1,
      "begin_81" : 0,
      "begin_77" : 0,
      "begin_114" : 0,
      "begin_12" : 0,
      "begin_78" : 0,
      "begin_82" : 0,
      "begin_13" : 0,
      "begin_83" : 0,
      "begin_79" : 0,
      "begin_115" : 0,
      "begin_14" : 0,
      "begin_84" : 0,
      "begin_15" : 0,
      "begin_85" : 0,
      "begin_116" : 0,
      "begin_120" : 0,
      "begin_20" : 0,
      "begin_86" : 0,
      "begin_16" : 0,
      "begin_90" : 0,
      "begin_21" : 0,
      "begin_91" : 0,
      "begin_87" : 0,
      "begin_17" : 0,
      "begin_117" : 0,
      "begin_121" : 0,
      "begin_18" : 0,
      "begin_92" : 0,
      "begin_88" : 0,
      "begin_22" : 0,
      "begin_23" : 0,
      "begin_89" : 0,
      "begin_19" : 0,
      "begin_93" : 0,
      "begin_118" : 0,
      "begin_122" : 0,
      "begin_24" : 0,
      "begin_94" : 0,
      "begin_25" : 0,
      "begin_95" : 0,
      "begin_119" : 0,
      "begin_123" : 0,
      "begin_30" : 0,
      "begin_26" : 0,
      "begin_96" : 0,
      "begin_124" : 0,
      "begin_31" : 0,
      "begin_97" : 0,
      "begin_27" : 0,
      "begin_28" : 0,
      "begin_98" : 0,
      "begin_32" : 0,
      "begin_125" : 0,
      "begin_33" : 0,
      "begin_29" : 0,
      "begin_99" : 0,
      "begin_1" : 0,
      "weights" : {

      },
      "begin_34" : 0,
      "bottom" : "67",
      "begin_3" : 0,
      "begin_126" : 0,
      "begin_35" : 0,
      "begin_5" : 0,
      "begin_36" : 0,
      "begin_40" : 0,
      "begin_127" : 0,
      "name" : "69",
      "begin_41" : 0,
      "begin_37" : 0,
      "begin_7" : 0,
      "begin_42" : 0,
      "begin_38" : 0,
      "begin_9" : 0,
      "begin_39" : 0,
      "begin_43" : 0,
      "begin_44" : 0,
      "begin_45" : 0,
      "begin_50" : 0,
      "begin_46" : 0,
      "begin_51" : 0,
      "begin_47" : 0,
      "begin_100" : 0,
      "begin_52" : 0,
      "debug_info" : "69",
      "begin_48" : 0,
      "top" : "69_0,69_1",
      "begin_101" : 0,
      "begin_53" : 0,
      "begin_49" : 0,
      "begin_54" : 0,
      "begin_55" : 0,
      "begin_102" : 0,
      "begin_60" : 0,
      "begin_56" : 0,
      "begin_103" : 0,
      "begin_57" : 0,
      "begin_61" : 0,
      "begin_62" : 0,
      "begin_58" : 0
    },
    {
      "pad_r" : 1,
      "fused_relu" : 0,
      "fused_tanh" : 0,
      "debug_info" : "input.13",
      "pad_fill_mode" : 0,
      "pad_b" : 1,
      "pad_l" : 1,
      "top" : "input.13",
      "blob_weights" : 15,
      "K" : 16,
      "blob_biases" : 13,
      "name" : "input.13",
      "has_batch_norm" : 0,
      "type" : "convolution",
      "n_groups" : 1,
      "pad_t" : 1,
      "has_biases" : 1,
      "C" : 16,
      "bottom" : "69_1",
      "weights" : {

      },
      "Nx" : 3,
      "pad_mode" : 0,
      "pad_value" : 0,
      "Ny" : 3,
      "n_parallel" : 1
    },
    {
      "bottom" : "input.13",
      "weights" : {

      },
      "mode" : 3,
      "debug_info" : "input.15__silu_sigmoid__",
      "top" : "input.15__silu_sigmoid__",
      "type" : "activation",
      "name" : "input.15__silu_sigmoid__"
    },
    {
      "bottom" : "input.13,input.15__silu_sigmoid__",
      "alpha" : 1,
      "operation" : 1,
      "weights" : {

      },
      "fused_relu" : 0,
      "debug_info" : "input.15",
      "top" : "input.15",
      "type" : "elementwise",
      "name" : "input.15",
      "beta" : 0
    },
    {
      "pad_r" : 1,
      "fused_relu" : 0,
      "fused_tanh" : 0,
      "debug_info" : "input.17",
      "pad_fill_mode" : 0,
      "pad_b" : 1,
      "pad_l" : 1,
      "top" : "input.17",
      "blob_weights" : 19,
      "K" : 16,
      "blob_biases" : 17,
      "name" : "input.17",
      "has_batch_norm" : 0,
      "type" : "convolution",
      "n_groups" : 1,
      "pad_t" : 1,
      "has_biases" : 1,
      "C" : 16,
      "bottom" : "input.15",
      "weights" : {

      },
      "Nx" : 3,
      "pad_mode" : 0,
      "pad_value" : 0,
      "Ny" : 3,
      "n_parallel" : 1
    },
    {
      "bottom" : "input.17",
      "weights" : {

      },
      "mode" : 3,
      "debug_info" : "91__silu_sigmoid__",
      "top" : "91__silu_sigmoid__",
      "type" : "activation",
      "name" : "91__silu_sigmoid__"
    },
    {
      "bottom" : "input.17,91__silu_sigmoid__",
      "alpha" : 1,
      "operation" : 1,
      "weights" : {

      },
      "fused_relu" : 0,
      "debug_info" : "91",
      "top" : "91",
      "type" : "elementwise",
      "name" : "91",
      "beta" : 0
    },
    {
      "bottom" : "69_1,91",
      "alpha" : 1,
      "operation" : 0,
      "weights" : {

      },
      "fused_relu" : 0,
      "debug_info" : "92",
      "top" : "92",
      "type" : "elementwise",
      "name" : "92",
      "beta" : 0
    },
    {
      "weights" : {

      },
      "debug_info" : "input.19",
      "top" : "input.19",
      "type" : "concat",
      "name" : "input.19",
      "bottom" : "69_0,69_1,92"
    },
    {
      "pad_r" : 0,
      "fused_relu" : 0,
      "fused_tanh" : 0,
      "debug_info" : "input.21",
      "pad_fill_mode" : 0,
      "pad_b" : 0,
      "pad_l" : 0,
      "top" : "input.21",
      "blob_weights" : 23,
      "K" : 48,
      "blob_biases" : 21,
      "name" : "input.21",
      "has_batch_norm" : 0,
      "type" : "convolution",
      "n_groups" : 1,
      "pad_t" : 0,
      "has_biases" : 1,
      "C" : 32,
      "bottom" : "input.19",
      "weights" : {

      },
      "Nx" : 1,
      "pad_mode" : 0,
      "pad_value" : 0,
      "Ny" : 1,
      "n_parallel" : 1
    },
    {
      "bottom" : "input.21",
      "weights" : {

      },
      "mode" : 3,
      "debug_info" : "input.23__silu_sigmoid__",
      "top" : "input.23__silu_sigmoid__",
      "type" : "activation",
      "name" : "input.23__silu_sigmoid__"
    },
    {
      "bottom" : "input.21,input.23__silu_sigmoid__",
      "alpha" : 1,
      "operation" : 1,
      "weights" : {

      },
      "fused_relu" : 0,
      "debug_info" : "input.23",
      "top" : "input.23",
      "type" : "elementwise",
      "name" : "input.23",
      "beta" : 0
    },
    {
      "pad_r" : 1,
      "fused_relu" : 0,
      "fused_tanh" : 0,
      "debug_info" : "input.25",
      "pad_fill_mode" : 0,
      "pad_b" : 1,
      "pad_l" : 1,
      "top" : "input.25",
      "blob_weights" : 27,
      "K" : 32,
      "blob_biases" : 25,
      "stride_x" : 2,
      "name" : "input.25",
      "has_batch_norm" : 0,
      "type" : "convolution",
      "n_groups" : 1,
      "pad_t" : 1,
      "stride_y" : 2,
      "has_biases" : 1,
      "C" : 64,
      "bottom" : "input.23",
      "weights" : {

      },
      "Nx" : 3,
      "pad_mode" : 0,
      "pad_value" : 0,
      "Ny" : 3,
      "n_parallel" : 1
    },
    {
      "bottom" : "input.25",
      "weights" : {

      },
      "mode" : 3,
      "debug_info" : "input.27__silu_sigmoid__",
      "top" : "input.27__silu_sigmoid__",
      "type" : "activation",
      "name" : "input.27__silu_sigmoid__"
    },
    {
      "bottom" : "input.25,input.27__silu_sigmoid__",
      "alpha" : 1,
      "operation" : 1,
      "weights" : {

      },
      "fused_relu" : 0,
      "debug_info" : "input.27",
      "top" : "input.27",
      "type" : "elementwise",
      "name" : "input.27",
      "beta" : 0
    },
    {
      "pad_r" : 0,
      "fused_relu" : 0,
      "fused_tanh" : 0,
      "debug_info" : "input.29",
      "pad_fill_mode" : 0,
      "pad_b" : 0,
      "pad_l" : 0,
      "top" : "input.29",
      "blob_weights" : 31,
      "K" : 64,
      "blob_biases" : 29,
      "name" : "input.29",
      "has_batch_norm" : 0,
      "type" : "convolution",
      "n_groups" : 1,
      "pad_t" : 0,
      "has_biases" : 1,
      "C" : 64,
      "bottom" : "input.27",
      "weights" : {

      },
      "Nx" : 1,
      "pad_mode" : 0,
      "pad_value" : 0,
      "Ny" : 1,
      "n_parallel" : 1
    },
    {
      "bottom" : "input.29",
      "weights" : {

      },
      "mode" : 3,
      "debug_info" : "137__silu_sigmoid__",
      "top" : "137__silu_sigmoid__",
      "type" : "activation",
      "name" : "137__silu_sigmoid__"
    },
    {
      "bottom" : "input.29,137__silu_sigmoid__",
      "alpha" : 1,
      "operation" : 1,
      "weights" : {

      },
      "fused_relu" : 0,
      "debug_info" : "137",
      "top" : "137",
      "type" : "elementwise",
      "name" : "137",
      "beta" : 0
    },
    {
      "begin_104" : 0,
      "begin_63" : 0,
      "begin_59" : 0,
      "begin_64" : 0,
      "begin_105" : 0,
      "begin_65" : 0,
      "begin_0" : 0,
      "begin_70" : 0,
      "begin_66" : 0,
      "begin_106" : 0,
      "begin_110" : 0,
      "begin_2" : 0,
      "begin_71" : 0,
      "begin_67" : 0,
      "begin_68" : 0,
      "begin_107" : 0,
      "begin_111" : 0,
      "begin_4" : 0,
      "begin_72" : 0,
      "begin_73" : 0,
      "begin_69" : 0,
      "begin_6" : 0,
      "begin_74" : 0,
      "begin_108" : 0,
      "type" : "split_nd",
      "begin_8" : 0,
      "begin_112" : 0,
      "begin_75" : 0,
      "begin_10" : 0,
      "begin_80" : 0,
      "begin_76" : 0,
      "begin_109" : 0,
      "begin_113" : 0,
      "begin_11" : 0,
      "nd_axis" : 1,
      "begin_81" : 0,
      "begin_77" : 0,
      "begin_114" : 0,
      "begin_12" : 0,
      "begin_78" : 0,
      "begin_82" : 0,
      "begin_13" : 0,
      "begin_83" : 0,
      "begin_79" : 0,
      "begin_115" : 0,
      "begin_14" : 0,
      "begin_84" : 0,
      "begin_15" : 0,
      "begin_85" : 0,
      "begin_116" : 0,
      "begin_120" : 0,
      "begin_20" : 0,
      "begin_86" : 0,
      "begin_16" : 0,
      "begin_90" : 0,
      "begin_21" : 0,
      "begin_91" : 0,
      "begin_87" : 0,
      "begin_17" : 0,
      "begin_117" : 0,
      "begin_121" : 0,
      "begin_18" : 0,
      "begin_92" : 0,
      "begin_88" : 0,
      "begin_22" : 0,
      "begin_23" : 0,
      "begin_89" : 0,
      "begin_19" : 0,
      "begin_93" : 0,
      "begin_118" : 0,
      "begin_122" : 0,
      "begin_24" : 0,
      "begin_94" : 0,
      "begin_25" : 0,
      "begin_95" : 0,
      "begin_119" : 0,
      "begin_123" : 0,
      "begin_30" : 0,
      "begin_26" : 0,
      "begin_96" : 0,
      "begin_124" : 0,
      "begin_31" : 0,
      "begin_97" : 0,
      "begin_27" : 0,
      "begin_28" : 0,
      "begin_98" : 0,
      "begin_32" : 0,
      "begin_125" : 0,
      "begin_33" : 0,
      "begin_29" : 0,
      "begin_99" : 0,
      "begin_1" : 0,
      "weights" : {

      },
      "begin_34" : 0,
      "bottom" : "137",
      "begin_3" : 0,
      "begin_126" : 0,
      "begin_35" : 0,
      "begin_5" : 0,
      "begin_36" : 0,
      "begin_40" : 0,
      "begin_127" : 0,
      "name" : "139",
      "begin_41" : 0,
      "begin_37" : 0,
      "begin_7" : 0,
      "begin_42" : 0,
      "begin_38" : 0,
      "begin_9" : 0,
      "begin_39" : 0,
      "begin_43" : 0,
      "begin_44" : 0,
      "begin_45" : 0,
      "begin_50" : 0,
      "begin_46" : 0,
      "begin_51" : 0,
      "begin_47" : 0,
      "begin_100" : 0,
      "begin_52" : 0,
      "debug_info" : "139",
      "begin_48" : 0,
      "top" : "139_0,139_1",
      "begin_101" : 0,
      "begin_53" : 0,
      "begin_49" : 0,
      "begin_54" : 0,
      "begin_55" : 0,
      "begin_102" : 0,
      "begin_60" : 0,
      "begin_56" : 0,
      "begin_103" : 0,
      "begin_57" : 0,
      "begin_61" : 0,
      "begin_62" : 0,
      "begin_58" : 0
    },
    {
      "pad_r" : 1,
      "fused_relu" : 0,
      "fused_tanh" : 0,
      "debug_info" : "input.33",
      "pad_fill_mode" : 0,
      "pad_b" : 1,
      "pad_l" : 1,
      "top" : "input.33",
      "blob_weights" : 35,
      "K" : 32,
      "blob_biases" : 33,
      "name" : "input.33",
      "has_batch_norm" : 0,
      "type" : "convolution",
      "n_groups" : 1,
      "pad_t" : 1,
      "has_biases" : 1,
      "C" : 32,
      "bottom" : "139_1",
      "weights" : {

      },
      "Nx" : 3,
      "pad_mode" : 0,
      "pad_value" : 0,
      "Ny" : 3,
      "n_parallel" : 1
    },
    {
      "bottom" : "input.33",
      "weights" : {

      },
      "mode" : 3,
      "debug_info" : "input.35__silu_sigmoid__",
      "top" : "input.35__silu_sigmoid__",
      "type" : "activation",
      "name" : "input.35__silu_sigmoid__"
    },
    {
      "bottom" : "input.33,input.35__silu_sigmoid__",
      "alpha" : 1,
      "operation" : 1,
      "weights" : {

      },
      "fused_relu" : 0,
      "debug_info" : "input.35",
      "top" : "input.35",
      "type" : "elementwise",
      "name" : "input.35",
      "beta" : 0
    },
    {
      "pad_r" : 1,
      "fused_relu" : 0,
      "fused_tanh" : 0,
      "debug_info" : "input.37",
      "pad_fill_mode" : 0,
      "pad_b" : 1,
      "pad_l" : 1,
      "top" : "input.37",
      "blob_weights" : 39,
      "K" : 32,
      "blob_biases" : 37,
      "name" : "input.37",
      "has_batch_norm" : 0,
      "type" : "convolution",
      "n_groups" : 1,
      "pad_t" : 1,
      "has_biases" : 1,
      "C" : 32,
      "bottom" : "input.35",
      "weights" : {

      },
      "Nx" : 3,
      "pad_mode" : 0,
      "pad_value" : 0,
      "Ny" : 3,
      "n_parallel" : 1
    },
    {
      "bottom" : "input.37",
      "weights" : {

      },
      "mode" : 3,
      "debug_info" : "161__silu_sigmoid__",
      "top" : "161__silu_sigmoid__",
      "type" : "activation",
      "name" : "161__silu_sigmoid__"
    },
    {
      "bottom" : "input.37,161__silu_sigmoid__",
      "alpha" : 1,
      "operation" : 1,
      "weights" : {

      },
      "fused_relu" : 0,
      "debug_info" : "161",
      "top" : "161",
      "type" : "elementwise",
      "name" : "161",
      "beta" : 0
    },
    {
      "bottom" : "139_1,161",
      "alpha" : 1,
      "operation" : 0,
      "weights" : {

      },
      "fused_relu" : 0,
      "debug_info" : "input.39",
      "top" : "input.39",
      "type" : "elementwise",
      "name" : "input.39",
      "beta" : 0
    },
    {
      "pad_r" : 1,
      "fused_relu" : 0,
      "fused_tanh" : 0,
      "debug_info" : "input.41",
      "pad_fill_mode" : 0,
      "pad_b" : 1,
      "pad_l" : 1,
      "top" : "input.41",
      "blob_weights" : 43,
      "K" : 32,
      "blob_biases" : 41,
      "name" : "input.41",
      "has_batch_norm" : 0,
      "type" : "convolution",
      "n_groups" : 1,
      "pad_t" : 1,
      "has_biases" : 1,
      "C" : 32,
      "bottom" : "input.39",
      "weights" : {

      },
      "Nx" : 3,
      "pad_mode" : 0,
      "pad_value" : 0,
      "Ny" : 3,
      "n_parallel" : 1
    },
    {
      "bottom" : "input.41",
      "weights" : {

      },
      "mode" : 3,
      "debug_info" : "input.43__silu_sigmoid__",
      "top" : "input.43__silu_sigmoid__",
      "type" : "activation",
      "name" : "input.43__silu_sigmoid__"
    },
    {
      "bottom" : "input.41,input.43__silu_sigmoid__",
      "alpha" : 1,
      "operation" : 1,
      "weights" : {

      },
      "fused_relu" : 0,
      "debug_info" : "input.43",
      "top" : "input.43",
      "type" : "elementwise",
      "name" : "input.43",
      "beta" : 0
    },
    {
      "pad_r" : 1,
      "fused_relu" : 0,
      "fused_tanh" : 0,
      "debug_info" : "input.45",
      "pad_fill_mode" : 0,
      "pad_b" : 1,
      "pad_l" : 1,
      "top" : "input.45",
      "blob_weights" : 47,
      "K" : 32,
      "blob_biases" : 45,
      "name" : "input.45",
      "has_batch_norm" : 0,
      "type" : "convolution",
      "n_groups" : 1,
      "pad_t" : 1,
      "has_biases" : 1,
      "C" : 32,
      "bottom" : "input.43",
      "weights" : {

      },
      "Nx" : 3,
      "pad_mode" : 0,
      "pad_value" : 0,
      "Ny" : 3,
      "n_parallel" : 1
    },
    {
      "bottom" : "input.45",
      "weights" : {

      },
      "mode" : 3,
      "debug_info" : "182__silu_sigmoid__",
      "top" : "182__silu_sigmoid__",
      "type" : "activation",
      "name" : "182__silu_sigmoid__"
    },
    {
      "bottom" : "input.45,182__silu_sigmoid__",
      "alpha" : 1,
      "operation" : 1,
      "weights" : {

      },
      "fused_relu" : 0,
      "debug_info" : "182",
      "top" : "182",
      "type" : "elementwise",
      "name" : "182",
      "beta" : 0
    },
    {
      "bottom" : "input.39,182",
      "alpha" : 1,
      "operation" : 0,
      "weights" : {

      },
      "fused_relu" : 0,
      "debug_info" : "183",
      "top" : "183",
      "type" : "elementwise",
      "name" : "183",
      "beta" : 0
    },
    {
      "weights" : {

      },
      "debug_info" : "input.47",
      "top" : "input.47",
      "type" : "concat",
      "name" : "input.47",
      "bottom" : "139_0,139_1,input.39,183"
    },
    {
      "pad_r" : 0,
      "fused_relu" : 0,
      "fused_tanh" : 0,
      "debug_info" : "input.49",
      "pad_fill_mode" : 0,
      "pad_b" : 0,
      "pad_l" : 0,
      "top" : "input.49",
      "blob_weights" : 51,
      "K" : 128,
      "blob_biases" : 49,
      "name" : "input.49",
      "has_batch_norm" : 0,
      "type" : "convolution",
      "n_groups" : 1,
      "pad_t" : 0,
      "has_biases" : 1,
      "C" : 64,
      "bottom" : "input.47",
      "weights" : {

      },
      "Nx" : 1,
      "pad_mode" : 0,
      "pad_value" : 0,
      "Ny" : 1,
      "n_parallel" : 1
    },
    {
      "bottom" : "input.49",
      "weights" : {

      },
      "mode" : 3,
      "debug_info" : "input.51__silu_sigmoid__",
      "top" : "input.51__silu_sigmoid__",
      "type" : "activation",
      "name" : "input.51__silu_sigmoid__"
    },
    {
      "bottom" : "input.49,input.51__silu_sigmoid__",
      "alpha" : 1,
      "operation" : 1,
      "weights" : {

      },
      "fused_relu" : 0,
      "debug_info" : "input.51",
      "top" : "input.51",
      "type" : "elementwise",
      "name" : "input.51",
      "beta" : 0
    },
    {
      "pad_r" : 1,
      "fused_relu" : 0,
      "fused_tanh" : 0,
      "debug_info" : "input.53",
      "pad_fill_mode" : 0,
      "pad_b" : 1,
      "pad_l" : 1,
      "top" : "input.53",
      "blob_weights" : 55,
      "K" : 64,
      "blob_biases" : 53,
      "stride_x" : 2,
      "name" : "input.53",
      "has_batch_norm" : 0,
      "type" : "convolution",
      "n_groups" : 1,
      "pad_t" : 1,
      "stride_y" : 2,
      "has_biases" : 1,
      "C" : 128,
      "bottom" : "input.51",
      "weights" : {

      },
      "Nx" : 3,
      "pad_mode" : 0,
      "pad_value" : 0,
      "Ny" : 3,
      "n_parallel" : 1
    },
    {
      "bottom" : "input.53",
      "weights" : {

      },
      "mode" : 3,
      "debug_info" : "input.55__silu_sigmoid__",
      "top" : "input.55__silu_sigmoid__",
      "type" : "activation",
      "name" : "input.55__silu_sigmoid__"
    },
    {
      "bottom" : "input.53,input.55__silu_sigmoid__",
      "alpha" : 1,
      "operation" : 1,
      "weights" : {

      },
      "fused_relu" : 0,
      "debug_info" : "input.55",
      "top" : "input.55",
      "type" : "elementwise",
      "name" : "input.55",
      "beta" : 0
    },
    {
      "pad_r" : 0,
      "fused_relu" : 0,
      "fused_tanh" : 0,
      "debug_info" : "input.57",
      "pad_fill_mode" : 0,
      "pad_b" : 0,
      "pad_l" : 0,
      "top" : "input.57",
      "blob_weights" : 59,
      "K" : 128,
      "blob_biases" : 57,
      "name" : "input.57",
      "has_batch_norm" : 0,
      "type" : "convolution",
      "n_groups" : 1,
      "pad_t" : 0,
      "has_biases" : 1,
      "C" : 128,
      "bottom" : "input.55",
      "weights" : {

      },
      "Nx" : 1,
      "pad_mode" : 0,
      "pad_value" : 0,
      "Ny" : 1,
      "n_parallel" : 1
    },
    {
      "bottom" : "input.57",
      "weights" : {

      },
      "mode" : 3,
      "debug_info" : "228__silu_sigmoid__",
      "top" : "228__silu_sigmoid__",
      "type" : "activation",
      "name" : "228__silu_sigmoid__"
    },
    {
      "bottom" : "input.57,228__silu_sigmoid__",
      "alpha" : 1,
      "operation" : 1,
      "weights" : {

      },
      "fused_relu" : 0,
      "debug_info" : "228",
      "top" : "228",
      "type" : "elementwise",
      "name" : "228",
      "beta" : 0
    },
    {
      "begin_104" : 0,
      "begin_63" : 0,
      "begin_59" : 0,
      "begin_64" : 0,
      "begin_105" : 0,
      "begin_65" : 0,
      "begin_0" : 0,
      "begin_70" : 0,
      "begin_66" : 0,
      "begin_106" : 0,
      "begin_110" : 0,
      "begin_2" : 0,
      "begin_71" : 0,
      "begin_67" : 0,
      "begin_68" : 0,
      "begin_107" : 0,
      "begin_111" : 0,
      "begin_4" : 0,
      "begin_72" : 0,
      "begin_73" : 0,
      "begin_69" : 0,
      "begin_6" : 0,
      "begin_74" : 0,
      "begin_108" : 0,
      "type" : "split_nd",
      "begin_8" : 0,
      "begin_112" : 0,
      "begin_75" : 0,
      "begin_10" : 0,
      "begin_80" : 0,
      "begin_76" : 0,
      "begin_109" : 0,
      "begin_113" : 0,
      "begin_11" : 0,
      "nd_axis" : 1,
      "begin_81" : 0,
      "begin_77" : 0,
      "begin_114" : 0,
      "begin_12" : 0,
      "begin_78" : 0,
      "begin_82" : 0,
      "begin_13" : 0,
      "begin_83" : 0,
      "begin_79" : 0,
      "begin_115" : 0,
      "begin_14" : 0,
      "begin_84" : 0,
      "begin_15" : 0,
      "begin_85" : 0,
      "begin_116" : 0,
      "begin_120" : 0,
      "begin_20" : 0,
      "begin_86" : 0,
      "begin_16" : 0,
      "begin_90" : 0,
      "begin_21" : 0,
      "begin_91" : 0,
      "begin_87" : 0,
      "begin_17" : 0,
      "begin_117" : 0,
      "begin_121" : 0,
      "begin_18" : 0,
      "begin_92" : 0,
      "begin_88" : 0,
      "begin_22" : 0,
      "begin_23" : 0,
      "begin_89" : 0,
      "begin_19" : 0,
      "begin_93" : 0,
      "begin_118" : 0,
      "begin_122" : 0,
      "begin_24" : 0,
      "begin_94" : 0,
      "begin_25" : 0,
      "begin_95" : 0,
      "begin_119" : 0,
      "begin_123" : 0,
      "begin_30" : 0,
      "begin_26" : 0,
      "begin_96" : 0,
      "begin_124" : 0,
      "begin_31" : 0,
      "begin_97" : 0,
      "begin_27" : 0,
      "begin_28" : 0,
      "begin_98" : 0,
      "begin_32" : 0,
      "begin_125" : 0,
      "begin_33" : 0,
      "begin_29" : 0,
      "begin_99" : 0,
      "begin_1" : 0,
      "weights" : {

      },
      "begin_34" : 0,
      "bottom" : "228",
      "begin_3" : 0,
      "begin_126" : 0,
      "begin_35" : 0,
      "begin_5" : 0,
      "begin_36" : 0,
      "begin_40" : 0,
      "begin_127" : 0,
      "name" : "230",
      "begin_41" : 0,
      "begin_37" : 0,
      "begin_7" : 0,
      "begin_42" : 0,
      "begin_38" : 0,
      "begin_9" : 0,
      "begin_39" : 0,
      "begin_43" : 0,
      "begin_44" : 0,
      "begin_45" : 0,
      "begin_50" : 0,
      "begin_46" : 0,
      "begin_51" : 0,
      "begin_47" : 0,
      "begin_100" : 0,
      "begin_52" : 0,
      "debug_info" : "230",
      "begin_48" : 0,
      "top" : "230_0,230_1",
      "begin_101" : 0,
      "begin_53" : 0,
      "begin_49" : 0,
      "begin_54" : 0,
      "begin_55" : 0,
      "begin_102" : 0,
      "begin_60" : 0,
      "begin_56" : 0,
      "begin_103" : 0,
      "begin_57" : 0,
      "begin_61" : 0,
      "begin_62" : 0,
      "begin_58" : 0
    },
    {
      "pad_r" : 1,
      "fused_relu" : 0,
      "fused_tanh" : 0,
      "debug_info" : "input.61",
      "pad_fill_mode" : 0,
      "pad_b" : 1,
      "pad_l" : 1,
      "top" : "input.61",
      "blob_weights" : 63,
      "K" : 64,
      "blob_biases" : 61,
      "name" : "input.61",
      "has_batch_norm" : 0,
      "type" : "convolution",
      "n_groups" : 1,
      "pad_t" : 1,
      "has_biases" : 1,
      "C" : 64,
      "bottom" : "230_1",
      "weights" : {

      },
      "Nx" : 3,
      "pad_mode" : 0,
      "pad_value" : 0,
      "Ny" : 3,
      "n_parallel" : 1
    },
    {
      "bottom" : "input.61",
      "weights" : {

      },
      "mode" : 3,
      "debug_info" : "input.63__silu_sigmoid__",
      "top" : "input.63__silu_sigmoid__",
      "type" : "activation",
      "name" : "input.63__silu_sigmoid__"
    },
    {
      "bottom" : "input.61,input.63__silu_sigmoid__",
      "alpha" : 1,
      "operation" : 1,
      "weights" : {

      },
      "fused_relu" : 0,
      "debug_info" : "input.63",
      "top" : "input.63",
      "type" : "elementwise",
      "name" : "input.63",
      "beta" : 0
    },
    {
      "pad_r" : 1,
      "fused_relu" : 0,
      "fused_tanh" : 0,
      "debug_info" : "input.65",
      "pad_fill_mode" : 0,
      "pad_b" : 1,
      "pad_l" : 1,
      "top" : "input.65",
      "blob_weights" : 67,
      "K" : 64,
      "blob_biases" : 65,
      "name" : "input.65",
      "has_batch_norm" : 0,
      "type" : "convolution",
      "n_groups" : 1,
      "pad_t" : 1,
      "has_biases" : 1,
      "C" : 64,
      "bottom" : "input.63",
      "weights" : {

      },
      "Nx" : 3,
      "pad_mode" : 0,
      "pad_value" : 0,
      "Ny" : 3,
      "n_parallel" : 1
    },
    {
      "bottom" : "input.65",
      "weights" : {

      },
      "mode" : 3,
      "debug_info" : "252__silu_sigmoid__",
      "top" : "252__silu_sigmoid__",
      "type" : "activation",
      "name" : "252__silu_sigmoid__"
    },
    {
      "bottom" : "input.65,252__silu_sigmoid__",
      "alpha" : 1,
      "operation" : 1,
      "weights" : {

      },
      "fused_relu" : 0,
      "debug_info" : "252",
      "top" : "252",
      "type" : "elementwise",
      "name" : "252",
      "beta" : 0
    },
    {
      "bottom" : "230_1,252",
      "alpha" : 1,
      "operation" : 0,
      "weights" : {

      },
      "fused_relu" : 0,
      "debug_info" : "input.67",
      "top" : "input.67",
      "type" : "elementwise",
      "name" : "input.67",
      "beta" : 0
    },
    {
      "pad_r" : 1,
      "fused_relu" : 0,
      "fused_tanh" : 0,
      "debug_info" : "input.69",
      "pad_fill_mode" : 0,
      "pad_b" : 1,
      "pad_l" : 1,
      "top" : "input.69",
      "blob_weights" : 71,
      "K" : 64,
      "blob_biases" : 69,
      "name" : "input.69",
      "has_batch_norm" : 0,
      "type" : "convolution",
      "n_groups" : 1,
      "pad_t" : 1,
      "has_biases" : 1,
      "C" : 64,
      "bottom" : "input.67",
      "weights" : {

      },
      "Nx" : 3,
      "pad_mode" : 0,
      "pad_value" : 0,
      "Ny" : 3,
      "n_parallel" : 1
    },
    {
      "bottom" : "input.69",
      "weights" : {

      },
      "mode" : 3,
      "debug_info" : "input.71__silu_sigmoid__",
      "top" : "input.71__silu_sigmoid__",
      "type" : "activation",
      "name" : "input.71__silu_sigmoid__"
    },
    {
      "bottom" : "input.69,input.71__silu_sigmoid__",
      "alpha" : 1,
      "operation" : 1,
      "weights" : {

      },
      "fused_relu" : 0,
      "debug_info" : "input.71",
      "top" : "input.71",
      "type" : "elementwise",
      "name" : "input.71",
      "beta" : 0
    },
    {
      "pad_r" : 1,
      "fused_relu" : 0,
      "fused_tanh" : 0,
      "debug_info" : "input.73",
      "pad_fill_mode" : 0,
      "pad_b" : 1,
      "pad_l" : 1,
      "top" : "input.73",
      "blob_weights" : 75,
      "K" : 64,
      "blob_biases" : 73,
      "name" : "input.73",
      "has_batch_norm" : 0,
      "type" : "convolution",
      "n_groups" : 1,
      "pad_t" : 1,
      "has_biases" : 1,
      "C" : 64,
      "bottom" : "input.71",
      "weights" : {

      },
      "Nx" : 3,
      "pad_mode" : 0,
      "pad_value" : 0,
      "Ny" : 3,
      "n_parallel" : 1
    },
    {
      "bottom" : "input.73",
      "weights" : {

      },
      "mode" : 3,
      "debug_info" : "273__silu_sigmoid__",
      "top" : "273__silu_sigmoid__",
      "type" : "activation",
      "name" : "273__silu_sigmoid__"
    },
    {
      "bottom" : "input.73,273__silu_sigmoid__",
      "alpha" : 1,
      "operation" : 1,
      "weights" : {

      },
      "fused_relu" : 0,
      "debug_info" : "273",
      "top" : "273",
      "type" : "elementwise",
      "name" : "273",
      "beta" : 0
    },
    {
      "bottom" : "input.67,273",
      "alpha" : 1,
      "operation" : 0,
      "weights" : {

      },
      "fused_relu" : 0,
      "debug_info" : "274",
      "top" : "274",
      "type" : "elementwise",
      "name" : "274",
      "beta" : 0
    },
    {
      "weights" : {

      },
      "debug_info" : "input.75",
      "top" : "input.75",
      "type" : "concat",
      "name" : "input.75",
      "bottom" : "230_0,230_1,input.67,274"
    },
    {
      "pad_r" : 0,
      "fused_relu" : 0,
      "fused_tanh" : 0,
      "debug_info" : "input.77",
      "pad_fill_mode" : 0,
      "pad_b" : 0,
      "pad_l" : 0,
      "top" : "input.77",
      "blob_weights" : 79,
      "K" : 256,
      "blob_biases" : 77,
      "name" : "input.77",
      "has_batch_norm" : 0,
      "type" : "convolution",
      "n_groups" : 1,
      "pad_t" : 0,
      "has_biases" : 1,
      "C" : 128,
      "bottom" : "input.75",
      "weights" : {

      },
      "Nx" : 1,
      "pad_mode" : 0,
      "pad_value" : 0,
      "Ny" : 1,
      "n_parallel" : 1
    },
    {
      "bottom" : "input.77",
      "weights" : {

      },
      "mode" : 3,
      "debug_info" : "input.79__silu_sigmoid__",
      "top" : "input.79__silu_sigmoid__",
      "type" : "activation",
      "name" : "input.79__silu_sigmoid__"
    },
    {
      "bottom" : "input.77,input.79__silu_sigmoid__",
      "alpha" : 1,
      "operation" : 1,
      "weights" : {

      },
      "fused_relu" : 0,
      "debug_info" : "input.79",
      "top" : "input.79",
      "type" : "elementwise",
      "name" : "input.79",
      "beta" : 0
    },
    {
      "pad_r" : 1,
      "fused_relu" : 0,
      "fused_tanh" : 0,
      "debug_info" : "input.81",
      "pad_fill_mode" : 0,
      "pad_b" : 1,
      "pad_l" : 1,
      "top" : "input.81",
      "blob_weights" : 83,
      "K" : 128,
      "blob_biases" : 81,
      "stride_x" : 2,
      "name" : "input.81",
      "has_batch_norm" : 0,
      "type" : "convolution",
      "n_groups" : 1,
      "pad_t" : 1,
      "stride_y" : 2,
      "has_biases" : 1,
      "C" : 256,
      "bottom" : "input.79",
      "weights" : {

      },
      "Nx" : 3,
      "pad_mode" : 0,
      "pad_value" : 0,
      "Ny" : 3,
      "n_parallel" : 1
    },
    {
      "bottom" : "input.81",
      "weights" : {

      },
      "mode" : 3,
      "debug_info" : "input.83__silu_sigmoid__",
      "top" : "input.83__silu_sigmoid__",
      "type" : "activation",
      "name" : "input.83__silu_sigmoid__"
    },
    {
      "bottom" : "input.81,input.83__silu_sigmoid__",
      "alpha" : 1,
      "operation" : 1,
      "weights" : {

      },
      "fused_relu" : 0,
      "debug_info" : "input.83",
      "top" : "input.83",
      "type" : "elementwise",
      "name" : "input.83",
      "beta" : 0
    },
    {
      "pad_r" : 0,
      "fused_relu" : 0,
      "fused_tanh" : 0,
      "debug_info" : "input.85",
      "pad_fill_mode" : 0,
      "pad_b" : 0,
      "pad_l" : 0,
      "top" : "input.85",
      "blob_weights" : 87,
      "K" : 256,
      "blob_biases" : 85,
      "name" : "input.85",
      "has_batch_norm" : 0,
      "type" : "convolution",
      "n_groups" : 1,
      "pad_t" : 0,
      "has_biases" : 1,
      "C" : 256,
      "bottom" : "input.83",
      "weights" : {

      },
      "Nx" : 1,
      "pad_mode" : 0,
      "pad_value" : 0,
      "Ny" : 1,
      "n_parallel" : 1
    },
    {
      "bottom" : "input.85",
      "weights" : {

      },
      "mode" : 3,
      "debug_info" : "317__silu_sigmoid__",
      "top" : "317__silu_sigmoid__",
      "type" : "activation",
      "name" : "317__silu_sigmoid__"
    },
    {
      "bottom" : "input.85,317__silu_sigmoid__",
      "alpha" : 1,
      "operation" : 1,
      "weights" : {

      },
      "fused_relu" : 0,
      "debug_info" : "317",
      "top" : "317",
      "type" : "elementwise",
      "name" : "317",
      "beta" : 0
    },
    {
      "begin_104" : 0,
      "begin_63" : 0,
      "begin_59" : 0,
      "begin_64" : 0,
      "begin_105" : 0,
      "begin_65" : 0,
      "begin_0" : 0,
      "begin_70" : 0,
      "begin_66" : 0,
      "begin_106" : 0,
      "begin_110" : 0,
      "begin_2" : 0,
      "begin_71" : 0,
      "begin_67" : 0,
      "begin_68" : 0,
      "begin_107" : 0,
      "begin_111" : 0,
      "begin_4" : 0,
      "begin_72" : 0,
      "begin_73" : 0,
      "begin_69" : 0,
      "begin_6" : 0,
      "begin_74" : 0,
      "begin_108" : 0,
      "type" : "split_nd",
      "begin_8" : 0,
      "begin_112" : 0,
      "begin_75" : 0,
      "begin_10" : 0,
      "begin_80" : 0,
      "begin_76" : 0,
      "begin_109" : 0,
      "begin_113" : 0,
      "begin_11" : 0,
      "nd_axis" : 1,
      "begin_81" : 0,
      "begin_77" : 0,
      "begin_114" : 0,
      "begin_12" : 0,
      "begin_78" : 0,
      "begin_82" : 0,
      "begin_13" : 0,
      "begin_83" : 0,
      "begin_79" : 0,
      "begin_115" : 0,
      "begin_14" : 0,
      "begin_84" : 0,
      "begin_15" : 0,
      "begin_85" : 0,
      "begin_116" : 0,
      "begin_120" : 0,
      "begin_20" : 0,
      "begin_86" : 0,
      "begin_16" : 0,
      "begin_90" : 0,
      "begin_21" : 0,
      "begin_91" : 0,
      "begin_87" : 0,
      "begin_17" : 0,
      "begin_117" : 0,
      "begin_121" : 0,
      "begin_18" : 0,
      "begin_92" : 0,
      "begin_88" : 0,
      "begin_22" : 0,
      "begin_23" : 0,
      "begin_89" : 0,
      "begin_19" : 0,
      "begin_93" : 0,
      "begin_118" : 0,
      "begin_122" : 0,
      "begin_24" : 0,
      "begin_94" : 0,
      "begin_25" : 0,
      "begin_95" : 0,
      "begin_119" : 0,
      "begin_123" : 0,
      "begin_30" : 0,
      "begin_26" : 0,
      "begin_96" : 0,
      "begin_124" : 0,
      "begin_31" : 0,
      "begin_97" : 0,
      "begin_27" : 0,
      "begin_28" : 0,
      "begin_98" : 0,
      "begin_32" : 0,
      "begin_125" : 0,
      "begin_33" : 0,
      "begin_29" : 0,
      "begin_99" : 0,
      "begin_1" : 0,
      "weights" : {

      },
      "begin_34" : 0,
      "bottom" : "317",
      "begin_3" : 0,
      "begin_126" : 0,
      "begin_35" : 0,
      "begin_5" : 0,
      "begin_36" : 0,
      "begin_40" : 0,
      "begin_127" : 0,
      "name" : "319",
      "begin_41" : 0,
      "begin_37" : 0,
      "begin_7" : 0,
      "begin_42" : 0,
      "begin_38" : 0,
      "begin_9" : 0,
      "begin_39" : 0,
      "begin_43" : 0,
      "begin_44" : 0,
      "begin_45" : 0,
      "begin_50" : 0,
      "begin_46" : 0,
      "begin_51" : 0,
      "begin_47" : 0,
      "begin_100" : 0,
      "begin_52" : 0,
      "debug_info" : "319",
      "begin_48" : 0,
      "top" : "319_0,319_1",
      "begin_101" : 0,
      "begin_53" : 0,
      "begin_49" : 0,
      "begin_54" : 0,
      "begin_55" : 0,
      "begin_102" : 0,
      "begin_60" : 0,
      "begin_56" : 0,
      "begin_103" : 0,
      "begin_57" : 0,
      "begin_61" : 0,
      "begin_62" : 0,
      "begin_58" : 0
    },
    {
      "pad_r" : 1,
      "fused_relu" : 0,
      "fused_tanh" : 0,
      "debug_info" : "input.89",
      "pad_fill_mode" : 0,
      "pad_b" : 1,
      "pad_l" : 1,
      "top" : "input.89",
      "blob_weights" : 91,
      "K" : 128,
      "blob_biases" : 89,
      "name" : "input.89",
      "has_batch_norm" : 0,
      "type" : "convolution",
      "n_groups" : 1,
      "pad_t" : 1,
      "has_biases" : 1,
      "C" : 128,
      "bottom" : "319_1",
      "weights" : {

      },
      "Nx" : 3,
      "pad_mode" : 0,
      "pad_value" : 0,
      "Ny" : 3,
      "n_parallel" : 1
    },
    {
      "bottom" : "input.89",
      "weights" : {

      },
      "mode" : 3,
      "debug_info" : "input.91__silu_sigmoid__",
      "top" : "input.91__silu_sigmoid__",
      "type" : "activation",
      "name" : "input.91__silu_sigmoid__"
    },
    {
      "bottom" : "input.89,input.91__silu_sigmoid__",
      "alpha" : 1,
      "operation" : 1,
      "weights" : {

      },
      "fused_relu" : 0,
      "debug_info" : "input.91",
      "top" : "input.91",
      "type" : "elementwise",
      "name" : "input.91",
      "beta" : 0
    },
    {
      "pad_r" : 1,
      "fused_relu" : 0,
      "fused_tanh" : 0,
      "debug_info" : "input.93",
      "pad_fill_mode" : 0,
      "pad_b" : 1,
      "pad_l" : 1,
      "top" : "input.93",
      "blob_weights" : 95,
      "K" : 128,
      "blob_biases" : 93,
      "name" : "input.93",
      "has_batch_norm" : 0,
      "type" : "convolution",
      "n_groups" : 1,
      "pad_t" : 1,
      "has_biases" : 1,
      "C" : 128,
      "bottom" : "input.91",
      "weights" : {

      },
      "Nx" : 3,
      "pad_mode" : 0,
      "pad_value" : 0,
      "Ny" : 3,
      "n_parallel" : 1
    },
    {
      "bottom" : "input.93",
      "weights" : {

      },
      "mode" : 3,
      "debug_info" : "341__silu_sigmoid__",
      "top" : "341__silu_sigmoid__",
      "type" : "activation",
      "name" : "341__silu_sigmoid__"
    },
    {
      "bottom" : "input.93,341__silu_sigmoid__",
      "alpha" : 1,
      "operation" : 1,
      "weights" : {

      },
      "fused_relu" : 0,
      "debug_info" : "341",
      "top" : "341",
      "type" : "elementwise",
      "name" : "341",
      "beta" : 0
    },
    {
      "bottom" : "319_1,341",
      "alpha" : 1,
      "operation" : 0,
      "weights" : {

      },
      "fused_relu" : 0,
      "debug_info" : "342",
      "top" : "342",
      "type" : "elementwise",
      "name" : "342",
      "beta" : 0
    },
    {
      "weights" : {

      },
      "debug_info" : "input.95",
      "top" : "input.95",
      "type" : "concat",
      "name" : "input.95",
      "bottom" : "319_0,319_1,342"
    },
    {
      "pad_r" : 0,
      "fused_relu" : 0,
      "fused_tanh" : 0,
      "debug_info" : "input.97",
      "pad_fill_mode" : 0,
      "pad_b" : 0,
      "pad_l" : 0,
      "top" : "input.97",
      "blob_weights" : 99,
      "K" : 384,
      "blob_biases" : 97,
      "name" : "input.97",
      "has_batch_norm" : 0,
      "type" : "convolution",
      "n_groups" : 1,
      "pad_t" : 0,
      "has_biases" : 1,
      "C" : 256,
      "bottom" : "input.95",
      "weights" : {

      },
      "Nx" : 1,
      "pad_mode" : 0,
      "pad_value" : 0,
      "Ny" : 1,
      "n_parallel" : 1
    },
    {
      "bottom" : "input.97",
      "weights" : {

      },
      "mode" : 3,
      "debug_info" : "input.99__silu_sigmoid__",
      "top" : "input.99__silu_sigmoid__",
      "type" : "activation",
      "name" : "input.99__silu_sigmoid__"
    },
    {
      "bottom" : "input.97,input.99__silu_sigmoid__",
      "alpha" : 1,
      "operation" : 1,
      "weights" : {

      },
      "fused_relu" : 0,
      "debug_info" : "input.99",
      "top" : "input.99",
      "type" : "elementwise",
      "name" : "input.99",
      "beta" : 0
    },
    {
      "pad_r" : 0,
      "fused_relu" : 0,
      "fused_tanh" : 0,
      "debug_info" : "input.101",
      "pad_fill_mode" : 0,
      "pad_b" : 0,
      "pad_l" : 0,
      "top" : "input.101",
      "blob_weights" : 103,
      "K" : 256,
      "blob_biases" : 101,
      "name" : "input.101",
      "has_batch_norm" : 0,
      "type" : "convolution",
      "n_groups" : 1,
      "pad_t" : 0,
      "has_biases" : 1,
      "C" : 1280,
      "bottom" : "input.99",
      "weights" : {

      },
      "Nx" : 1,
      "pad_mode" : 0,
      "pad_value" : 0,
      "Ny" : 1,
      "n_parallel" : 1
    },
    {
      "bottom" : "input.101",
      "weights" : {

      },
      "mode" : 3,
      "debug_info" : "input.103__silu_sigmoid__",
      "top" : "input.103__silu_sigmoid__",
      "type" : "activation",
      "name" : "input.103__silu_sigmoid__"
    },
    {
      "bottom" : "input.101,input.103__silu_sigmoid__",
      "alpha" : 1,
      "operation" : 1,
      "weights" : {

      },
      "fused_relu" : 0,
      "debug_info" : "input.103",
      "top" : "input.103",
      "type" : "elementwise",
      "name" : "input.103",
      "beta" : 0
    },
    {
      "pad_r" : 0,
      "debug_info" : "373",
      "pad_fill_mode" : 0,
      "pad_b" : 0,
      "pad_l" : 0,
      "size_x" : 3,
      "is_global" : 1,
      "top" : "373",
      "top_shape_style" : 0,
      "stride_x" : 1,
      "avg_or_max" : 0,
      "average_count_exclude_padding" : 1,
      "type" : "pool",
      "name" : "373",
      "pad_t" : 0,
      "stride_y" : 1,
      "bottom" : "input.103",
      "weights" : {

      },
      "pad_mode" : 2,
      "size_y" : 3,
      "pad_value" : 0
    },
    {
      "name" : "input.105",
      "weights" : {

      },
      "dst_w" : 1280,
      "version" : 1,
      "dst_n" : 1,
      "dst_nd_rank" : 2,
      "type" : "reshape",
      "dst_h" : 1,
      "mode" : 0,
      "dynamic_shape" : false,
      "bottom" : "373",
      "debug_info" : "input.105",
      "dst_seq" : 1,
      "dst_k" : 1,
      "top" : "input.105"
    },
    {
      "nB" : 1280,
      "top" : "x",
      "has_biases" : 1,
      "weights" : {

      },
      "nC" : 5,
      "blob_weights" : 107,
      "type" : "inner_product",
      "has_relu" : 0,
      "bottom" : "input.105",
      "blob_biases" : 105,
      "has_tanh" : 0,
      "debug_info" : "x",
      "name" : "x",
      "has_prelu" : 0
    },
    {
      "bottom" : "x",
      "weights" : {

      },
      "nd_axis" : 1,
      "debug_info" : "379",
      "top" : "var_379",
      "type" : "softmax_nd",
      "name" : "379",
      "attributes" : {
        "is_output" : 1
      }
    }
  ],
  "transform_params" : {
    "image" : {
      "bias_a" : 0,
      "bias_g" : 0,
      "bias_r" : 0,
      "bias_b" : 0,
      "center_mean" : 0,
      "is_network_bgr" : 0,
      "scale" : 0.0039215688593685627
    }
  },
  "storage" : "model.espresso.weights",
  "metadata_in_weights" : [

  ],
  "properties" : {

  },
  "analyses" : {

  },
  "format_version" : 200
}